…
C:\Users\danil\AppData\Local\Continuum\anaconda3\lib\site-packages\h5py\__init__.py:34: FutureWarning: Conversion of the second argument of issubdtype from `float` to `np.floating` is deprecated. In future, it will be treated as `np.float64 == np.dtype(float).type`.
  from ._conv import register_converters as _register_converters
Using TensorFlow backend.

ARGS =  Namespace(checkpoint=None, epochs=10, lr=1.0, subset=5, test=False, train=True)
num unique tokens : 126
embedding shape:  (2800, 50)
__________________________________________________________________________________________________
Layer (type)                    Output Shape         Param #     Connected to
==================================================================================================
input_1 (InputLayer)            (None, 100)          0
__________________________________________________________________________________________________
input_2 (InputLayer)            (None, 100)          0
__________________________________________________________________________________________________
input_3 (InputLayer)            (None, 100)          0
__________________________________________________________________________________________________
embedding_1 (Embedding)         (None, 100, 50)      140000      input_1[0][0]
__________________________________________________________________________________________________
embedding_2 (Embedding)         (None, 100, 10)      2010        input_2[0][0]
__________________________________________________________________________________________________
embedding_3 (Embedding)         (None, 100, 10)      40          input_3[0][0]
__________________________________________________________________________________________________
concatenate_1 (Concatenate)     (None, 100, 70)      0           embedding_1[0][0]
                                                                 embedding_2[0][0]
                                                                 embedding_3[0][0]
__________________________________________________________________________________________________
bidirectional_1 (Bidirectional) (None, 100, 200)     136800      concatenate_1[0][0]
__________________________________________________________________________________________________
global_max_pooling1d_1 (GlobalM (None, 100)          0           bidirectional_1[0][0]
__________________________________________________________________________________________________
dense_1 (Dense)                 (None, 3)            303         global_max_pooling1d_1[0][0]
==================================================================================================
Total params: 279,153
Trainable params: 279,153
Non-trainable params: 0
__________________________________________________________________________________________________
self.model.summary() None
self.X1[train_idx].shape (140, 100)
self.X2[train_idx].shape (140, 100)
…
2019-06-22 12:05:57.127705: I T:\src\github\tensorflow\tensorflow\core\common_runtime\gpu\gpu_device.cc:1084] Created TensorFlow device (/job:localhost/replica:0/task:0/device:GPU:0 with 1414 MB memory) -> physical GPU (device: 0, name: GeForce 940MX, pci bus id: 0000:01:00.0, compute capability: 5.0)
__________________________________________________________________________________________________
Layer (type)                    Output Shape         Param #     Connected to
==================================================================================================
input_1 (InputLayer)            (None, 100)          0
__________________________________________________________________________________________________
input_2 (InputLayer)            (None, 100)          0
__________________________________________________________________________________________________
input_3 (InputLayer)            (None, 100)          0
__________________________________________________________________________________________________
embedding_1 (Embedding)         (None, 100, 50)      140000      input_1[0][0]
__________________________________________________________________________________________________
embedding_2 (Embedding)         (None, 100, 10)      2010        input_2[0][0]
__________________________________________________________________________________________________
embedding_3 (Embedding)         (None, 100, 10)      40          input_3[0][0]
__________________________________________________________________________________________________
concatenate_1 (Concatenate)     (None, 100, 70)      0           embedding_1[0][0]
                                                                 embedding_2[0][0]
                                                                 embedding_3[0][0]
__________________________________________________________________________________________________
bidirectional_1 (Bidirectional) (None, 100, 300)     265200      concatenate_1[0][0]
__________________________________________________________________________________________________
input_5 (InputLayer)            (None, 3)            0
__________________________________________________________________________________________________
global_max_pooling1d_1 (GlobalM (None, 100)          0           bidirectional_1[0][0]
__________________________________________________________________________________________________
concatenate_2 (Concatenate)     (None, 103)          0           input_5[0][0]
                                                                 global_max_pooling1d_1[0][0]
__________________________________________________________________________________________________
dense_1 (Dense)                 (None, 3)            312         concatenate_2[0][0]
==================================================================================================
Total params: 407,562
Trainable params: 407,562
Non-trainable params: 0
__________________________________________________________________________________________________
self.model.summary() None
self.X1[train_idx].shape (894, 100)
self.X2[train_idx].shape (894, 100)
self.X3[train_idx].shape (894, 100)
…
2019-06-22 12:22:26.356945: I T:\src\github\tensorflow\tensorflow\core\common_runtime\gpu\gpu_device.cc:1084] Created TensorFlow device (/job:localhost/replica:0/task:0/device:GPU:0 with 1414 MB memory) -> physical GPU (device: 0, name: GeForce 940MX, pci bus id: 0000:01:00.0, compute capability: 5.0)
__________________________________________________________________________________________________
Layer (type)                    Output Shape         Param #     Connected to
==================================================================================================
input_1 (InputLayer)            (None, 150)          0
__________________________________________________________________________________________________
input_2 (InputLayer)            (None, 150)          0
__________________________________________________________________________________________________
input_3 (InputLayer)            (None, 150)          0
__________________________________________________________________________________________________
embedding_1 (Embedding)         (None, 150, 50)      140000      input_1[0][0]
__________________________________________________________________________________________________
embedding_2 (Embedding)         (None, 150, 5)       1505        input_2[0][0]
__________________________________________________________________________________________________
embedding_3 (Embedding)         (None, 150, 5)       20          input_3[0][0]
__________________________________________________________________________________________________
concatenate_1 (Concatenate)     (None, 150, 60)      0           embedding_1[0][0]
                                                                 embedding_2[0][0]
                                                                 embedding_3[0][0]
__________________________________________________________________________________________________
input_6 (InputLayer)            (None, 150)          0
__________________________________________________________________________________________________
bidirectional_1 (Bidirectional) (None, 150, 300)     253200      concatenate_1[0][0]
__________________________________________________________________________________________________
reshape_2 (Reshape)             (None, 150, 1)       0           input_6[0][0]
__________________________________________________________________________________________________
multiply_1 (Multiply)           (None, 150, 300)     0           reshape_2[0][0]
                                                                 bidirectional_1[0][0]
__________________________________________________________________________________________________
concatenate_3 (Concatenate)     (None, 150, 600)     0           bidirectional_1[0][0]
                                                                 multiply_1[0][0]
__________________________________________________________________________________________________
lambda_1 (Lambda)               (None, 1, 300)       0           bidirectional_1[0][0]
__________________________________________________________________________________________________
lstm_2 (LSTM)                   (None, 50)           130200      concatenate_3[0][0]
__________________________________________________________________________________________________
reshape_1 (Reshape)             (None, 300)          0           lambda_1[0][0]
__________________________________________________________________________________________________
concatenate_4 (Concatenate)     (None, 350)          0           lstm_2[0][0]
                                                                 reshape_1[0][0]
__________________________________________________________________________________________________
dense_2 (Dense)                 (None, 150)          52650       concatenate_4[0][0]
__________________________________________________________________________________________________
reshape_3 (Reshape)             (None, 150, 1)       0           dense_2[0][0]
__________________________________________________________________________________________________
multiply_2 (Multiply)           (None, 150, 300)     0           reshape_3[0][0]
                                                                 bidirectional_1[0][0]
__________________________________________________________________________________________________
concatenate_5 (Concatenate)     (None, 150, 600)     0           bidirectional_1[0][0]
                                                                 multiply_2[0][0]
__________________________________________________________________________________________________
input_5 (InputLayer)            (None, 3)            0
__________________________________________________________________________________________________
global_max_pooling1d_1 (GlobalM (None, 150)          0           bidirectional_1[0][0]
__________________________________________________________________________________________________
lstm_3 (LSTM)                   (None, 50)           130200      concatenate_5[0][0]
__________________________________________________________________________________________________
concatenate_2 (Concatenate)     (None, 153)          0           input_5[0][0]
                                                                 global_max_pooling1d_1[0][0]
__________________________________________________________________________________________________
concatenate_6 (Concatenate)     (None, 350)          0           lstm_3[0][0]
                                                                 reshape_1[0][0]
__________________________________________________________________________________________________
dense_1 (Dense)                 (None, 3)            462         concatenate_2[0][0]
__________________________________________________________________________________________________
dense_3 (Dense)                 (None, 150)          52650       concatenate_6[0][0]
==================================================================================================
Total params: 760,887
Trainable params: 760,887
Non-trainable params: 0
__________________________________________________________________________________________________
self.model.summary() None
self.X1[train_idx].shape (894, 150)
self.X2[train_idx].shape (894, 150)
self.X3[train_idx].shape (894, 150)
…
2019-06-22 13:18:01.258746: I T:\src\github\tensorflow\tensorflow\core\common_runtime\gpu\gpu_device.cc:1084] Created TensorFlow device (/job:localhost/replica:0/task:0/device:GPU:0 with 1414 MB memory) -> physical GPU (device: 0, name: GeForce 940MX, pci bus id: 0000:01:00.0, compute capability: 5.0)
__________________________________________________________________________________________________
Layer (type)                    Output Shape         Param #     Connected to
==================================================================================================
input_1 (InputLayer)            (None, 150)          0
__________________________________________________________________________________________________
input_2 (InputLayer)            (None, 150)          0
__________________________________________________________________________________________________
input_3 (InputLayer)            (None, 150)          0
__________________________________________________________________________________________________
embedding_1 (Embedding)         (None, 150, 50)      140000      input_1[0][0]
__________________________________________________________________________________________________
embedding_2 (Embedding)         (None, 150, 5)       1505        input_2[0][0]
__________________________________________________________________________________________________
embedding_3 (Embedding)         (None, 150, 5)       20          input_3[0][0]
__________________________________________________________________________________________________
concatenate_1 (Concatenate)     (None, 150, 60)      0           embedding_1[0][0]
                                                                 embedding_2[0][0]
                                                                 embedding_3[0][0]
__________________________________________________________________________________________________
input_6 (InputLayer)            (None, 150)          0
__________________________________________________________________________________________________
bidirectional_1 (Bidirectional) (None, 150, 200)     128800      concatenate_1[0][0]
__________________________________________________________________________________________________
reshape_2 (Reshape)             (None, 150, 1)       0           input_6[0][0]
__________________________________________________________________________________________________
multiply_1 (Multiply)           (None, 150, 200)     0           reshape_2[0][0]
                                                                 bidirectional_1[0][0]
__________________________________________________________________________________________________
concatenate_3 (Concatenate)     (None, 150, 400)     0           bidirectional_1[0][0]
                                                                 multiply_1[0][0]
__________________________________________________________________________________________________
lambda_1 (Lambda)               (None, 1, 200)       0           bidirectional_1[0][0]
__________________________________________________________________________________________________
lstm_2 (LSTM)                   (None, 10)           16440       concatenate_3[0][0]
__________________________________________________________________________________________________
reshape_1 (Reshape)             (None, 200)          0           lambda_1[0][0]
__________________________________________________________________________________________________
concatenate_4 (Concatenate)     (None, 210)          0           lstm_2[0][0]
                                                                 reshape_1[0][0]
__________________________________________________________________________________________________
dense_2 (Dense)                 (None, 150)          31650       concatenate_4[0][0]
__________________________________________________________________________________________________
reshape_3 (Reshape)             (None, 150, 1)       0           dense_2[0][0]
__________________________________________________________________________________________________
multiply_2 (Multiply)           (None, 150, 200)     0           reshape_3[0][0]
                                                                 bidirectional_1[0][0]
__________________________________________________________________________________________________
concatenate_5 (Concatenate)     (None, 150, 400)     0           bidirectional_1[0][0]
                                                                 multiply_2[0][0]
__________________________________________________________________________________________________
input_5 (InputLayer)            (None, 3)            0
__________________________________________________________________________________________________
global_max_pooling1d_1 (GlobalM (None, 150)          0           bidirectional_1[0][0]
__________________________________________________________________________________________________
lstm_3 (LSTM)                   (None, 10)           16440       concatenate_5[0][0]
__________________________________________________________________________________________________
concatenate_2 (Concatenate)     (None, 153)          0           input_5[0][0]
                                                                 global_max_pooling1d_1[0][0]
__________________________________________________________________________________________________
concatenate_6 (Concatenate)     (None, 210)          0           lstm_3[0][0]
                                                                 reshape_1[0][0]
__________________________________________________________________________________________________
dense_1 (Dense)                 (None, 3)            462         concatenate_2[0][0]
__________________________________________________________________________________________________
dense_3 (Dense)                 (None, 150)          31650       concatenate_6[0][0]
==================================================================================================
Total params: 366,967
Trainable params: 366,967
Non-trainable params: 0
__________________________________________________________________________________________________
self.model.summary() None
self.X1[train_idx].shape (10356, 150)
self.X2[train_idx].shape (10356, 150)
self.X3[train_idx].shape (10356, 150)
…
2019-06-23 02:09:18.009784: I T:\src\github\tensorflow\tensorflow\core\common_runtime\gpu\gpu_device.cc:1084] Created TensorFlow device (/job:localhost/replica:0/task:0/device:GPU:0 with 1414 MB memory) -> physical GPU (device: 0, name: GeForce 940MX, pci bus id: 0000:01:00.0, compute capability: 5.0)
__________________________________________________________________________________________________
Layer (type)                    Output Shape         Param #     Connected to
==================================================================================================
input_1 (InputLayer)            (None, 150)          0
__________________________________________________________________________________________________
input_2 (InputLayer)            (None, 150)          0
__________________________________________________________________________________________________
input_3 (InputLayer)            (None, 150)          0
__________________________________________________________________________________________________
embedding_1 (Embedding)         (None, 150, 50)      140000      input_1[0][0]
__________________________________________________________________________________________________
embedding_2 (Embedding)         (None, 150, 5)       1505        input_2[0][0]
__________________________________________________________________________________________________
embedding_3 (Embedding)         (None, 150, 5)       20          input_3[0][0]
__________________________________________________________________________________________________
concatenate_1 (Concatenate)     (None, 150, 60)      0           embedding_1[0][0]
                                                                 embedding_2[0][0]
                                                                 embedding_3[0][0]
__________________________________________________________________________________________________
input_6 (InputLayer)            (None, 150)          0
__________________________________________________________________________________________________
bidirectional_1 (Bidirectional) (None, 150, 200)     128800      concatenate_1[0][0]
__________________________________________________________________________________________________
reshape_2 (Reshape)             (None, 150, 1)       0           input_6[0][0]
__________________________________________________________________________________________________
multiply_1 (Multiply)           (None, 150, 200)     0           reshape_2[0][0]
                                                                 bidirectional_1[0][0]
__________________________________________________________________________________________________
concatenate_3 (Concatenate)     (None, 150, 400)     0           bidirectional_1[0][0]
                                                                 multiply_1[0][0]
__________________________________________________________________________________________________
lambda_1 (Lambda)               (None, 1, 200)       0           bidirectional_1[0][0]
__________________________________________________________________________________________________
lstm_2 (LSTM)                   (None, 10)           16440       concatenate_3[0][0]
__________________________________________________________________________________________________
reshape_1 (Reshape)             (None, 200)          0           lambda_1[0][0]
__________________________________________________________________________________________________
concatenate_4 (Concatenate)     (None, 210)          0           lstm_2[0][0]
                                                                 reshape_1[0][0]
__________________________________________________________________________________________________
dense_2 (Dense)                 (None, 150)          31650       concatenate_4[0][0]
__________________________________________________________________________________________________
reshape_3 (Reshape)             (None, 150, 1)       0           dense_2[0][0]
__________________________________________________________________________________________________
multiply_2 (Multiply)           (None, 150, 200)     0           reshape_3[0][0]
                                                                 bidirectional_1[0][0]
__________________________________________________________________________________________________
concatenate_5 (Concatenate)     (None, 150, 400)     0           bidirectional_1[0][0]
                                                                 multiply_2[0][0]
__________________________________________________________________________________________________
input_5 (InputLayer)            (None, 3)            0
__________________________________________________________________________________________________
global_max_pooling1d_1 (GlobalM (None, 150)          0           bidirectional_1[0][0]
__________________________________________________________________________________________________
lstm_3 (LSTM)                   (None, 10)           16440       concatenate_5[0][0]
__________________________________________________________________________________________________
concatenate_2 (Concatenate)     (None, 153)          0           input_5[0][0]
                                                                 global_max_pooling1d_1[0][0]
__________________________________________________________________________________________________
concatenate_6 (Concatenate)     (None, 210)          0           lstm_3[0][0]
                                                                 reshape_1[0][0]
__________________________________________________________________________________________________
dense_1 (Dense)                 (None, 3)            462         concatenate_2[0][0]
__________________________________________________________________________________________________
dense_3 (Dense)                 (None, 150)          31650       concatenate_6[0][0]
==================================================================================================
Total params: 366,967
Trainable params: 366,967
Non-trainable params: 0
__________________________________________________________________________________________________
self.model.summary() None
Model loaded from:  C:\Users\danil\Documents\Northwestern\2019-2 Spring\COMP_SCI 497\Course Project\propara-cs497\checkpoints\model2019-06-22_13-17-48 - Copy.h5
__________________________________________________________________________________________________
Layer (type)                    Output Shape         Param #     Connected to
==================================================================================================
input_1 (InputLayer)            (None, 150)          0
__________________________________________________________________________________________________
input_2 (InputLayer)            (None, 150)          0
__________________________________________________________________________________________________
input_3 (InputLayer)            (None, 150)          0
__________________________________________________________________________________________________
embedding_1 (Embedding)         (None, 150, 50)      140000      input_1[0][0]
__________________________________________________________________________________________________
embedding_2 (Embedding)         (None, 150, 5)       1505        input_2[0][0]
__________________________________________________________________________________________________
embedding_3 (Embedding)         (None, 150, 5)       20          input_3[0][0]
__________________________________________________________________________________________________
concatenate_1 (Concatenate)     (None, 150, 60)      0           embedding_1[0][0]
                                                                 embedding_2[0][0]
                                                                 embedding_3[0][0]
__________________________________________________________________________________________________
input_6 (InputLayer)            (None, 150)          0
__________________________________________________________________________________________________
bidirectional_1 (Bidirectional) (None, 150, 200)     128800      concatenate_1[0][0]
__________________________________________________________________________________________________
reshape_2 (Reshape)             (None, 150, 1)       0           input_6[0][0]
__________________________________________________________________________________________________
multiply_1 (Multiply)           (None, 150, 200)     0           reshape_2[0][0]
                                                                 bidirectional_1[0][0]
__________________________________________________________________________________________________
concatenate_3 (Concatenate)     (None, 150, 400)     0           bidirectional_1[0][0]
                                                                 multiply_1[0][0]
__________________________________________________________________________________________________
lambda_1 (Lambda)               (None, 1, 200)       0           bidirectional_1[0][0]
__________________________________________________________________________________________________
lstm_2 (LSTM)                   (None, 10)           16440       concatenate_3[0][0]
__________________________________________________________________________________________________
reshape_1 (Reshape)             (None, 200)          0           lambda_1[0][0]
__________________________________________________________________________________________________
concatenate_4 (Concatenate)     (None, 210)          0           lstm_2[0][0]
                                                                 reshape_1[0][0]
__________________________________________________________________________________________________
dense_2 (Dense)                 (None, 150)          31650       concatenate_4[0][0]
__________________________________________________________________________________________________
reshape_3 (Reshape)             (None, 150, 1)       0           dense_2[0][0]
__________________________________________________________________________________________________
multiply_2 (Multiply)           (None, 150, 200)     0           reshape_3[0][0]
                                                                 bidirectional_1[0][0]
__________________________________________________________________________________________________
concatenate_5 (Concatenate)     (None, 150, 400)     0           bidirectional_1[0][0]
                                                                 multiply_2[0][0]
__________________________________________________________________________________________________
input_5 (InputLayer)            (None, 3)            0
__________________________________________________________________________________________________
global_max_pooling1d_1 (GlobalM (None, 150)          0           bidirectional_1[0][0]
__________________________________________________________________________________________________
lstm_3 (LSTM)                   (None, 10)           16440       concatenate_5[0][0]
__________________________________________________________________________________________________
concatenate_2 (Concatenate)     (None, 153)          0           input_5[0][0]
                                                                 global_max_pooling1d_1[0][0]
__________________________________________________________________________________________________
concatenate_6 (Concatenate)     (None, 210)          0           lstm_3[0][0]
                                                                 reshape_1[0][0]
__________________________________________________________________________________________________
dense_1 (Dense)                 (None, 3)            462         concatenate_2[0][0]
__________________________________________________________________________________________________
dense_3 (Dense)                 (None, 150)          31650       concatenate_6[0][0]
==================================================================================================
Total params: 366,967
Trainable params: 366,967
Non-trainable params: 0
__________________________________________________________________________________________________
self.model.summary() None

### Test starting
Percent: [===================>] 100% # cost: 2.027, elapsed time (min): 4.48
…
